best_snake_model.pth (torch, 22626 bytes, 6 tensors)

fc1.weight f4 [64, 8]
-0.050135076 0.13765685 -0.0103923995 -0.12788917 -1.21677 -0.41268846 -0.3234054 -0.5459017
-0.0864258 0.15927082 0.15602948 0.05066886 -0.06710304 -0.2951789 0.096869804 0.16910768
0.053273197 0.07870242 0.013256745 0.06955465 -0.7234733 -0.6356388 -0.07414101 -0.16314423
0.25921008 -0.055585776 0.001956231 -0.36585668 -2.0716825 -2.1961908 -0.42473328 0.036525205
0.24159005 0.118914455 -0.09137255 -0.08357319 -0.012562543 -0.12298602 -0.2790904 -0.17748645
0.120728716 -0.026536103 -0.49574652 -0.023757592 -0.6829132 0.060352102 -0.30144626 0.19377854
0.10371173 -0.03704112 0.20340012 0.075779215 -0.15733652 -0.10055572 0.119301386 -0.054426663
-0.0005215643 -0.0113129495 -0.27241963 0.07701091 0.076553605 0.07339787 -0.28559378 -0.7627073
0.22873218 0.053364377 -0.18120052 0.11412524 -0.24540752 -0.19284813 0.09676327 -0.20990802
0.61331457 -0.0894708 0.008375806 0.059948225 -0.670289 -0.39052734 -1.0774338 -1.1035016
-0.11679562 -0.06478857 -0.022202803 0.09242211 -0.30738318 -0.29770902 0.1267427 0.3952023
-0.24945974 0.31393054 -0.043272223 0.018459158 -0.049074825 -0.07017709 -0.19686238 -0.010929798
-0.31627855 0.17076974 -0.3531725 0.071890905 -0.10001089 -0.11963327 -0.23312387 -0.0676955
0.107988626 0.0036685516 -0.21056917 -0.21811225 -0.41817394 0.118941 -0.15942705 -0.22687572
0.022490473 0.27300155 -0.20308171 -0.41595182 0.17446923 0.009129521 -0.14972256 -0.67958045
-0.013953146 -0.18088269 -0.260595 -0.11108529 0.05311771 0.010154434 -2.5580242 -3.1761732
0.06287736 -0.06770928 0.21979427 -0.16674735 -0.44932795 -0.38193998 0.14861953 -0.09888451
0.18283752 -0.25736707 -0.2862943 0.08353868 -0.12611935 -0.3427903 -0.19838336 -0.028273255
-0.321543 0.057735946 -0.059759744 -0.20862865 -0.69158256 -0.62632346 -0.5085669 -0.57256955
0.64661103 0.14145789 -0.00085883896 0.008698884 -2.8065414 -1.5831187 0.22231801 0.22808485
-0.2146477 -0.24043655 0.3183703 -0.08319104 -0.2956624 -0.27649787 -0.31617072 -0.22333264
0.4192651 0.19566423 0.1859385 -0.04708242 0.044888493 0.011541185 -0.31595665 0.029275915
0.019401385 0.20612934 0.27510625 -0.10885069 -0.22647506 -3.0066473 -0.46928737 -0.51458216
-0.014886543 0.03668199 0.043239564 0.4336149 -0.067951165 -0.25636816 -0.41350493 -0.20336102
-0.010854279 -0.54591566 0.11266345 0.004101007 -0.54863095 -3.1144314 -0.36639586 0.031192072
0.033314455 0.23088273 -0.09628001 -0.3349407 -0.30059734 -0.016889459 -0.07050272 -0.3318301
-0.23980619 0.17425899 0.042617425 0.16946195 -0.08933449 -0.16189131 -0.051728632 0.08633219
-0.1516502 0.10399176 -0.020974033 0.01181266 -0.46198198 -0.4224005 -1.8077067 -0.59748816
-0.14264072 0.00191763 0.016032375 -0.31331402 0.014614757 -0.23416233 0.17168324 -0.1802301
-0.2323056 -0.16402906 -0.09335939 0.13674317 -0.05535325 -0.10061877 -0.027893504 0.21100219
-0.117529705 -0.0641114 0.09144379 -0.06604312 0.22254811 -0.112752385 -0.2880122 -0.24695066
-0.29693702 0.24886772 0.026574066 -0.04654984 -0.46355876 -0.126418 -0.21011738 0.16832341
00000000: 705a 4dbd ebf5 0c3e e244 2abc 61f5 02be
00000010: 1fbf 9bbf e74b d3be 6595 a5be 37c0 0bbf
00000020: 0300 b1bd e417 233e 31c6 1f3e 278a 4f3d
00000030: 526d 89bd b021 97be ad63 c63d 902a 2d3e
00000040: ff34 5a3d bc2e a13d d232 593c ab72 8e3d
00000050: 8c35 39bf 39b9 22bf 3ed7 97bd 480f 27be
00000060: 2fb7 843e e9ad 63bd 1c34 003b 9151 bbbe
00000070: 7296 04c0 648e 0cc0 a476 d9be 749b 153d
00000080: 6263 773e 6c89 f33d 8821 bbbd 6c28 abbd
00000090: 20d3 4dbc 18e0 fbbd f0e4 8ebe 02bf 35be
000000a0: 9e40 f73d 3e62 d9bc 7dd2 fdbe 489f c2bc
000000b0: 66d3 2ebf c433 773d 2a57 9abe e26d 463e
000000c0: d166 d43d 6eb8 17bd 1f48 503e 2232 9b3d
000000d0: d31c 21be 28f0 cdbd 4954 f43d 7eee 5ebd
000000e0: 96b9 08ba f359 39bc 967a 8bbe e5b7 9d3d
000000f0: 23c8 9c3d 9f51 963d 5939 92be c940 43bf
00000100: c538 6a3e 9b94 5a3d a18c 39be 7eba e93d
00000110: 1c4c 7bbe fb79 45be d22b c63d 21f2 56be
00000120: 2f02 1d3f 773c b7bd ad3a 093c 458c 753d
00000130: 0f98 2bbf 33f3 c7be 5ae9 89bf 8a3f 8dbf
00000140: 8b32 efbd dfaf 84bd a7e2 b5bc ce47 bd3d
00000150: 5461 9dbe 516d 98be d7c8 013e f557 ca3e
00000160: 6072 7fbe 81bb a03e 373e 31bd a937 973c
00000170: af02 49bd 02b9 8fbd 4b96 49be e512 33bc
00000180: 43ef a1be 43de 2e3e 07d3 b4be 8a3b 933d
00000190: 82d2 ccbd 4a02 f5bd 06b8 6ebe f0a3 8abd
000001a0: 2429 dd3d 156c 703b 729f 57be d158 5fbe
000001b0: e51a d6be 5797 f33d d840 23be 1c52 68be
000001c0: f13d b83c dcc6 8b3e a7f4 4fbe a3f7 d4be
000001d0: 10a8 323e fd93 153c df50 19be fcf8 2dbf
000001e0: bc9b 64bc 5039 39be b56c 85be af80 e3bd
000001f0: f591 593d c85e 263c abb6 23c0 6c46 4bc0
00000200: d8c5 803d 2aab 8abd c011 613e d1bf 2abe
00000210: 500e e6be a38d c3be b82f 183e f683 cabd
00000220: c239 3b3e 9ec5 83be 2b95 92be 5416 ab3d
00000230: 6e25 01be 3682 afbe 0225 4bbe 509d e7bc
00000240: 49a1 a4be 877c 6c3d a2c6 74bd c0a2 55be
00000250: 8e0b 31bf bc56 20bf 7131 02bf eb93 12bf
00000260: 4d88 253f 56da 103e b523 61ba c485 0e3c
00000270: 609e 33c0 a2a3 cabf 55a7 633e 138f 693e
00000280: 9bcc 5bbe 0035 76be 6f01 a33e 1060 aabd
00000290: 1061 97be 2191 8dbe 21e1 a1be 50b1 64be
000002a0: eaa9 d63e 345c 483e aa66 3e3e 7fd9 40bd
000002b0: ffdc 373d 3d17 3d3c 12c5 a1be 0bd4 ef3c
000002c0: a7ef 9e3c 9213 533e bada 8c3e 1ced debd
000002d0: 14e9 67be e96c 40c0 6f46 f0be a8bb 03bf
000002e0: b0e6 73bc db3f 163d f81b 313d c602 de3e
000002f0: fb29 8bbd b042 83be ebb6 d3be df3d 50be
00000300: 25d6 31bc 21c1 0bbf 18bc e63d bd61 863b
00000310: 1473 0cbf d852 47c0 3d98 bbbe 8486 ff3c
00000320: bd74 083d 866c 6c3e 742e c5bd 597d abbe
00000330: e5e7 99be c35b 8abc bb63 90bd a3e5 a9be
00000340: c18f 75be f370 323e 9c8f 2e3d 6f87 2d3e
00000350: 00f5 b6bd d6c6 25be 67e1 53bd eece b03d
00000360: 314a 1bbe a2f9 d43d bcd1 abbc e389 413c
00000370: e788 ecbe e144 d8be ef62 e7bf fcf4 18bf
00000380: 6910 12be fc58 fb3a 5456 833c b26a a0be
00000390: bc72 6f3c 40c8 6fbe bbcd 2f3e 3d8e 38be
000003a0: 85e1 6dbe 3cf7 27be 3533 bfbd 6706 0c3e
000003b0: 17ba 62bd 3711 cebd eb80 e4bc f510 583e
000003c0: 6ab3 f0bd d64c 83bd e246 bb3d 9e41 87bd
000003d0: a7e3 633e b9ea e6bd 5676 93be a2e0 7cbe
000003e0: 2108 98be 2ed7 7e3e dbb1 d93c 0cab 3ebd
000003f0: 9357 edbe b873 01be 0329 57be f95c 2c3e

fc1.bias f4 [64]
0.17254049 1.1812847 0.37597007 -0.34842092 -0.2787292 1.0914326 1.1797082 0.9487274
1.177592 0.34594703 1.1063148 1.0256121 -0.23059522 1.1614299 0.9407941 -0.0673963
1.2637798 -0.23368654 0.43109196 1.24359 -0.20332423 1.077321 -0.2736366 1.237637
-0.18993224 1.272263 0.8964639 0.34588382 1.184927 1.1518254 1.0305401 1.1687729
0.9726345 0.92395765 -0.3128817 0.95696676 0.75568974 0.60026765 1.0159822 1.13708
1.098314 1.038221 1.0456393 0.86738104 1.0219873 1.5659908 1.0295662 -0.25787225
0.3906634 1.0890561 1.2176855 0.42947102 0.30266488 1.1757978 1.1792532 1.0246701
0.9593786 1.1550088 1.0192001 0.22485389 0.21330635 1.1307669 1.2584971 3.3299794
00000000: 74ae 303e 5634 973f 267f c03e 3a64 b2be
00000010: 98b5 8ebe 10b4 8b3f ae00 973f cddf 723f
00000020: 56bb 963f f81f b13e b99b 8d3f 4247 833f
00000030: 2721 6cbe bca9 943f e2d7 703f 1207 8abd
00000040: 89c3 a13f 864b 6fbe 16b8 dc3e f52d 9f3f
00000050: 3a34 50be a8e5 893f 191a 8cbe e46a 9e3f
00000060: 997d 42be 84d9 a23f a87e 653f af17 b13e
00000070: b0ab 973f 046f 933f bde8 833f 5a9a 953f
00000080: 93fe 783f 7d88 6c3f 0832 a0be c6fb 743f
00000090: e274 413f 24ab 193f b40b 823f d68b 913f
000000a0: 8e95 8c3f 6de4 843f 82d7 853f af0c 5e3f
000000b0: 7bd0 823f 6372 c83f d3c8 833f d507 84be
000000c0: 0805 c83e 3166 8b3f 1edd 9b3f a0e3 db3e
000000d0: e4f6 9a3e 8b80 963f c5f1 963f 6428 833f
000000e0: d699 753f 54d7 933f 2675 823f 1940 663e
000000f0: fb6c 5a3e f8bc 903f 6f16 a13f 621e 5540

fc2.weight f4 [64, 64]
0.15733626 0.18438712 0.0676149 0.89689195 -0.028442562 0.22238654 0.06964127 -0.13122322
0.027352322 -0.5007396 0.19633432 -0.07735848 0.09166543 0.03190834 -0.24234782 4.467551
0.4977839 -0.12285338 0.07625561 -0.92876166 -0.07311237 0.024532117 -0.2583502 0.22149524
0.32983467 0.03827112 -0.015326049 -0.45681942 0.24370782 0.08505748 0.26402512 0.074091755
-0.010748513 0.14582127 -0.04639919 0.055531874 0.8436032 1.1359998 -0.068674915 0.031481013
0.2380972 0.09679055 0.23564711 0.61294466 0.059761606 -0.770777 0.11746312 -0.046098202
-0.09135787 0.11620422 0.29103047 -0.03898133 -0.33340818 -0.04902363 0.11108042 -0.041991595
0.33316076 0.027982881 0.21751045 0.44630858 -0.119877264 -0.018528402 0.37111527 -2.889786
-0.12267504 0.19413698 0.16001612 1.3797942 -0.046103105 0.10053804 0.18422972 0.21041831
0.249648 -0.043730367 0.26909566 0.13686308 -0.0860406 0.20645237 0.32249457 3.348683
0.26881757 0.019701257 0.20393556 -0.22681652 0.029719278 0.38862222 0.45560136 0.3610937
0.37691644 0.19332287 0.19027977 0.32590774 0.15920049 0.29119635 0.46026018 0.14809237
0.28355813 0.17101495 -0.046855018 0.13303666 -0.06758301 0.27843982 0.1226077 0.27013072
0.19101036 0.26579994 0.30874276 -0.13336764 0.23198521 -0.31062055 0.17601365 -0.0851585
0.095923394 0.25755933 0.16984189 -0.009413212 0.27098477 0.22750933 0.0053769383 0.13795307
0.3069722 0.21475662 0.22926599 0.05855919 0.14413488 0.14275287 0.28520727 -0.024876261
0.030794183 0.22451249 0.030950915 1.2760296 0.11312096 0.1346255 0.24822395 -0.024683848
0.3330276 0.1330851 0.23983888 0.24384381 -0.09088999 0.30385995 0.33002385 2.616666
0.33797747 -0.04399079 0.0492041 -0.33688197 -0.03717062 0.27940288 0.5197414 0.24699056
0.16519134 0.25926206 0.20277224 0.25472075 0.2608764 0.26078793 0.41301295 0.15837236
0.18545778 0.2056524 -0.059610978 0.29855183 -0.093474396 0.22046776 0.115713045 0.21377628
0.3645713 0.22842911 0.31370065 -0.21632056 0.27546296 -0.43639395 0.19539459 -0.11215213
0.047149193 0.1655339 0.33740398 0.02520627 0.49037546 0.36772317 0.118888386 0.20658168
0.3319615 0.25938624 0.36039647 -0.029307056 0.369038 0.33412713 0.3569097 0.03742345
-0.022021709 0.1601652 -0.19225754 0.47776195 -0.11394374 0.015849583 0.27882633 0.32007346
0.1211206 -0.08963693 0.23717435 0.30226827 -0.044489272 0.22653873 0.45804644 4.6699276
0.23082575 -0.06820214 0.16317388 -0.3598162 -0.0129053295 0.27196452 0.23569289 0.2652793
0.41625407 0.19974455 0.14901301 0.1425047 0.23362686 0.2730144 0.6668622 0.13906613
0.53486526 0.21242888 -0.03410846 0.24889165 -0.1217744 -0.43510658 0.14173219 0.14225854
0.06423071 0.3076948 0.31283975 -0.3919294 0.27571157 0.41286394 0.07017599 -0.10640542
-0.024477022 0.07008246 0.19593775 0.07563789 0.2181727 0.4402953 0.23197101 0.084417716
0.23170885 0.24650156 0.21486634 0.035137385 0.27503842 0.3095271 0.42653996 0.57177037
00000000: c21c 213e facf 3c3e ae79 8a3d b69a 653f
00000010: 6000 e9bc 4cb9 633e 15a0 8e3d 615f 06be
00000020: fa11 e03c 7830 00bf dd0b 493e 1f6e 9ebd
00000030: 16bb bb3d 52b2 023d 072a 78be 2ef6 8e40
00000040: 88dd fe3e 8e9a fbbd e72b 9c3d 53c3 6dbf
00000050: f0bb 95bd 94f7 c83c 7a46 84be a6cf 623e
00000060: 17e0 a83e 2ec2 1c3d 1c1a 7bbc 3ce4 e9be
00000070: 8b8e 793e 9e32 ae3d 4d2e 873e 6bbd 973d
00000080: 881a 30bc 2c52 153e 140d 3ebd 6475 633d
00000090: 61f6 573f 7168 913f 6fa5 8cbd 3cf2 003d
000000a0: c1cf 733e 203a c63d 7a4d 713e f1e9 1c3f
000000b0: 96c8 743d a451 45bf 8190 f03d 78d1 3cbd
000000c0: d619 bbbd 7afc ed3d f201 953e e3aa 1fbd
000000d0: 7ab4 aabe 00cd 48bd 227e e33d 61ff 2bbd
000000e0: 0c94 aa3e 5b3c e53c 0fbb 5e3e 8f82 e43e
000000f0: 3682 f5bd e0c8 97bc d202 be3e 41f2 38c0
00000100: 0d3d fbbd d8cb 463e 44db 233e 199d b03f
00000110: 9cd6 3cbd e3e6 cd3d b7a6 3c3e e677 573e
00000120: baa3 7f3e 9d1e 33bd e8c6 893e d625 0c3e
00000130: 0e36 b0bd 4068 533e 021e a53e d350 5640
00000140: 75a2 893e 8864 a13c 7cd4 503e 9742 68be
00000150: d875 f33c 7ef9 c63e 9544 e93e 46e1 b83e
00000160: 31fb c03e 6ef6 453e b3d8 423e 61dd a63e
00000170: 7405 233e b017 953e 39a7 eb3e 87a5 173e
00000180: 882e 913e 8b1e 2f3e 0ceb 3fbd c33a 083e
00000190: f668 8abd aa8f 8e3e bf19 fb3d 934e 8a3e
000001a0: 3898 433e ee16 883e 8813 9e3e 8791 08be
000001b0: 888d 6d3e a809 9fbe ec3c 343e 9467 aebd
000001c0: 7c73 c43d d1de 833e 08eb 2d3e df39 1abc
000001d0: 84be 8a3e 35f8 683e 0731 b03b 9243 0d3e
000001e0: 762b 9d3e 29e9 5b3e b4c4 6a3e c3db 6f3d
000001f0: 1898 133e cf2d 123e b006 923e 4dc9 cbbc
00000200: 1544 fc3c 9ae6 653e c68c fd3c f054 a33f
00000210: f6ab e73d 44db 093e 6b2e 7e3e c835 cabc
00000220: 9882 aa3e 7647 083e 5398 753e 31b2 793e
00000230: 8824 babd 8893 9b3e e3f8 a83e 7577 2740
00000240: 620b ad3e b02f 34bd 3d8a 493d cb7b acbe
00000250: 3840 18bd e50d 8f3e c60d 053f 18eb 7c3e
00000260: eb27 293e ffbd 843e 87a3 4f3e c26a 823e
00000270: 9791 853e ff85 853e 6f76 d33e 5d2c 223e
00000280: a5e8 3d3e 8b96 523e a42a 74bd c9db 983e
00000290: 816f bfbd 4dc2 613e f6fa ec3d 2be8 5a3e
000002a0: 17a9 ba3e 52e9 693e 5f9d a03e 2383 5dbe
000002b0: 7b09 8d3e 076f dfbe 8515 483e 04b0 e5bd
000002c0: 831f 413d b881 293e 37c0 ac3e 617d ce3c
000002d0: 7e12 fb3e 3646 bc3e c17b f33d 268a 533e
000002e0: dcf6 a93e 46ce 843e e385 b83e 5a15 f0bc
000002f0: 8cf2 bc3e b612 ab3e debc b63e 5549 193d
00000300: df66 b4bc 5902 243e 29df 44be 379d f43e
00000310: 565b e9bd fcd6 813c 53c2 8e3e abe0 a33e
00000320: 140e f83d 9193 b7bd d5dd 723e e8c2 9a3e
00000330: 623a 36bd c5f9 673e 1085 ea3e 0c70 9540
00000340: 965d 6c3e 90ad 8bbd 0e17 273e d439 b8be
00000350: e070 53bc ef3e 8b3e 7a59 713e b0d2 873e
00000360: 411f d53e d689 4c3e de96 183e c1ec 113e
00000370: e13b 6f3e 8bc8 8b3e 7bb7 2a3f 5a67 0e3e
00000380: eeec 083f f586 593e 50b5 0bbd 74dd 7e3e
00000390: db64 f9bd 4ac6 debe 3e22 113e 39ac 113e
000003a0: 648b 833d 2c8a 9d3e 882c a03e f8aa c8be
000003b0: 112a 8d3e e762 d33e 6eb8 8f3d 16eb d9bd
000003c0: 0984 c8bc 6587 8f3d e8a3 483e 0ae8 9a3d
000003d0: aa68 5f3e 636e e13e cf89 6d3e 32e3 ac3d
000003e0: 1645 6d3e e86a 7c3e ec05 5c3e 38ec 0f3d
000003f0: d6d1 8c3e 567a 9e3e 7263 da3e 8b5f 123f

fc2.bias f4 [64]
-0.0953913 0.09800081 0.23624626 0.04685347 -0.091059364 0.03532312 0.074976265 0.3789912
0.53401643 -0.11900098 -0.120577395 -0.106792465 0.38799116 -0.021046419 0.092567 0.45878565
-0.13386494 0.027539358 -0.15848966 0.15692343 -0.0021965702 -0.09939509 0.0104692215 -0.14462097
0.018736621 0.04960964 -0.13458942 0.045241937 -0.020867301 0.02493662 0.12663138 0.06638467
-0.049966946 0.2170454 -0.026939327 0.07485618 -0.04445353 0.10773737 -0.01615069 0.19243744
-0.051665004 -0.036298037 -0.029556006 0.07507882 -0.18128799 -0.090797365 0.1889687 0.24688214
-0.19567521 -0.10050062 -0.07766321 -0.14847206 0.20855187 0.07901832 -0.20323291 -0.009829248
-0.1243636 0.2399227 0.34067985 0.051288225 -0.008637185 -0.014426425 0.18511483 -0.13456832
00000000: 845c c3bd a6b4 c83d 8aea 713e 6de9 3f3d
00000010: 557d babd faae 103d 288d 993d 220b c23e
00000020: 4db5 083f c9b6 f3bd 48f1 f6bd 02b6 dabd
00000030: c7a6 c63e 8a69 acbc c493 bd3d f4e5 ea3e
00000040: e413 09be 389a e13c 1d4b 22be 89b0 203e
00000050: 55f4 0fbb a78f cbbd 1987 2b3c 8517 14be
00000060: 8b7d 993c 7a33 4b3d cfd1 09be 9c4f 393d
00000070: e7f1 aabc e247 cc3c a8ab 013e b0f4 873d
00000080: 24aa 4cbd 2641 5e3e ddaf dcbc 324e 993d
00000090: e814 36bd 69a5 dc3d 744e 84bc 520e 453e
000000a0: af9e 53bd 40ad 14bd 701f f2bc edc2 993d
000000b0: 8fa3 39be f8f3 b9bd 0381 413e acce 7c3e
000000c0: 155f 48be 45d3 cdbd e40d 9fbd 0f09 18be
000000d0: 9f8e 553e 5bd4 a13d 4a1c 50be db0a 21bc
000000e0: 58b2 febd 4cae 753e 976d ae3e 9a13 523d
000000f0: fb82 0dbc d05c 6cbc be8e 3d3e 47cc 09be

fc3.weight f4 [4, 64]
-0.014239537 0.47335783 0.4720803 0.48710108 0.029511258 0.4560111 0.098726094 0.5268892
-1.1111151 -0.021215597 0.0034174174 -0.05404919 0.38413736 0.455545 0.43325007 0.47118443
0.0024840045 -0.008156925 0.13187963 0.44913 0.20385645 -0.26672018 -0.07797402 0.06302891
0.0014931256 0.33623496 -0.054064497 -0.08558289 0.05101037 0.03686941 0.43567505 0.4209028
0.07499948 0.32983997 -0.088891625 -0.013108308 -0.008038756 0.45788196 0.02062492 0.18064389
0.1121835 0.057373878 0.18113576 -0.044523768 0.1730727 -0.023316115 0.5082321 0.4488811
0.004692096 0.13123132 -0.031798374 -0.118817456 -0.32545453 0.5274536 0.18483493 0.4408696
-0.04774855 0.4217045 0.49806845 0.18763341 0.041715503 -0.10644126 0.2573926 0.00654679
-0.006382288 0.40911648 0.35944918 0.47690308 -0.08191776 0.4368925 0.0002452284 0.4883658
-1.1507014 0.055205338 -0.07144588 -0.0979043 0.4985827 0.408353 0.3900704 0.5080545
0.024196856 -0.11204524 0.15722835 0.42159733 0.15340945 -0.11096899 -0.020233737 -0.0033408403
-0.03494674 0.35131902 -0.011932069 0.14332955 0.030256495 -0.14639944 0.48421803 0.537039
0.039394274 0.32965216 0.0142981885 -0.05734043 0.06272912 0.48422757 0.047838762 0.21779782
0.1007692 0.04325317 0.16834654 0.003814507 0.22147386 0.10000983 0.48994228 0.4618165
0.013843858 0.06071212 -0.04247095 0.04207347 -0.35182694 0.45029745 0.13366634 0.49743205
-0.048838615 0.39972043 0.5188631 0.13807045 0.08762829 0.0103985965 0.2884774 -0.10193419
0.14726494 0.45333394 0.40626594 0.58753484 -0.09465861 0.44550455 0.07339463 0.3642337
-0.9568264 -0.11032778 0.03912832 0.042350378 0.39919338 0.47501498 0.36262828 0.4316702
-0.029174775 0.01987435 0.07238788 0.4385914 0.085855395 -0.14718549 0.03906907 -0.002325748
-0.019921161 0.35474548 -0.115101695 0.1322414 0.04236787 0.033488125 0.52336943 0.57516265
0.038600266 0.28491053 -0.10292124 0.025227018 -0.0034698297 0.5201754 0.13260761 0.091113396
0.07481703 0.113843225 0.121819645 -0.084659405 0.06614296 -0.06132333 0.61610174 0.42333853
-0.059174784 0.09919884 0.0015967713 -0.17264761 -0.46510834 0.57977694 0.10652702 0.5439985
-0.0294123 0.3374989 0.51931006 0.05223455 -0.027966589 0.0008032918 0.15472186 0.04069262
0.02987889 0.48937833 0.51579165 0.5670846 0.08701038 0.4106203 -0.03366378 0.43010756
-0.94023484 -0.063298404 0.053356603 0.05804669 0.40237644 0.38583654 0.40185353 0.51461905
0.039100587 0.090725675 0.09501092 0.4588503 0.09419718 -0.35968176 0.033426557 0.05778268
-0.092309505 0.21331187 -0.056161195 -0.09171981 0.031883173 -0.06090774 0.45437112 0.51018834
0.028078372 0.26382065 0.01504003 -0.018369216 -0.073480524 0.5599639 0.08768997 0.10866536
0.06257921 0.09912891 0.11232164 -0.10332213 0.07404733 -0.041594837 0.6949283 0.43380716
-0.009248949 0.06904839 -0.02356853 -0.19779958 -0.5560645 0.5637589 0.13272204 0.56570935
0.10760769 0.4563983 0.47453266 0.04475597 -0.07372589 -0.08616704 0.14533299 -0.03218867
00000000: f24c 69bc f55b f23e 82b4 f13e 5065 f93e
00000010: 98c1 f13c 497a e93e e830 ca3d 36e2 063f
00000020: 0539 8ebf 55cc adbc c0f6 5f3b af62 5dbd
00000030: a7ad c43e 323d e93e f4d2 dd3e 163f f13e
00000040: aeca 223b a0a4 05bc 740b 073e 5ef4 e53e
00000050: bfbf 503e 8c8f 88be d8b0 9fbd 4d15 813d
00000060: fbb4 c33a fd26 ac3e bc72 5dbd 1546 afbd
00000070: 40f0 503d 6104 173d cd10 df3e 9280 d73e
00000080: 5499 993d c9e0 a83e d00c b6bd 3bc4 56bc
00000090: fdb4 03bc 816f ea3e 98f5 a83c b6fa 383e
000000a0: 76c0 e53d df00 6b3d a77b 393e 8e5e 36bd
000000b0: f839 313e 7001 bfbc 801b 023f bed3 e53e
000000c0: 27c0 993b 8161 063e 033f 02bd 9156 f3bd
000000d0: faa1 a6be 3307 073f 5e45 3d3e a9b9 e13e
000000e0: fc93 43bd a7e9 d73e d402 ff3e f922 403e
000000f0: e0dd 2a3d e0fd d9bd f6c8 833e 7486 d63b
00000100: 8322 d1bb b777 d13e b909 b83e a42c f43e
00000110: 80c4 a7bd 60b0 df3e 0092 8039 150b fa3e
00000120: 2f4a 93bf fe1e 623d 3852 92bd 0d82 c8bd
00000130: 3b46 ff3e a513 d13e 4fb7 c73e dc0f 023f
00000140: 7c38 c63c fa77 e5bd 7800 213e 9bdb d73e
00000150: 5e17 1d3e b643 e3bd 39c1 a5bc 00f2 5abb
00000160: 5024 0fbd 16e0 b33e ba7e 43bc fbc4 123e
00000170: 78dc f73c bce9 15be 6deb f73e 637b 093f
00000180: e45b 213d 2bc8 a83e f342 6a3c ccdd 6abd
00000190: 2078 803d adec f73e 94f2 433d 6406 5f3e
000001a0: 1560 ce3d 3c2a 313d 0963 2c3e cffc 793b
000001b0: 0bca 623e f4d1 cc3d b7d9 fa3e 3673 ec3e
000001c0: 59d1 623c 46ad 783d 05f6 2dbd 3b55 2c3d
000001d0: a922 b4be 638d e63e d4df 083e 6aaf fe3e
000001e0: 000b 48bd 28a8 cc3e 36d4 043f 5762 0d3e
000001f0: 7676 b33d e05e 2a3c 4fb3 933e dfc2 d0bd
00000200: 9fcc 163e 631b e83e 1702 d03e af68 163f
00000210: 60dc c1bd 2c19 e43e ec4f 963d d77c ba3e
00000220: 93f2 74bf 88f3 e1bd 0445 203d 9777 2d3d
00000230: 1363 cc3e 2a35 f33e 6aaa b93e e003 dd3e
00000240: f0ff eebc 88cf a23c 1940 943d 0d8f e03e
00000250: f4d4 af3d cbb7 16be e406 203d 946b 18bb
00000260: b431 a3bc 33a1 b53e 70ba ebbd 4a6a 073e
00000270: ef89 2d3d d82a 093d 8afb 053f dc3d 133f
00000280: 501b 1e3d cbdf 913e 5fc8 d2bd e4a8 ce3c
00000290: 1566 63bb 372a 053f 4aca 073e a999 ba3d
000002a0: ac39 993d a326 e93d 947c f93d e961 adbd
000002b0: f675 873d 2c2e 7bbd d8b8 1d3f d4bf d83e
000002c0: 4261 72bd c328 cb3d c14a d13a 89ca 30be
000002d0: ae22 eebe 436c 143f d72a da3d 7c43 0b3f
000002e0: 10f2 f0bc a8cc ac3e 81f1 043f e5f3 553d
000002f0: 301a e5bc 0094 523a 686f 1e3e 4ead 263d
00000300: 93c4 f43c cc8f fa3e ec0a 043f 752c 113f
00000310: 8032 b23d d33c d23e 08e3 09bd 0f37 dc3e
00000320: 3bb3 70bf 98a2 81bd 748c 5a3d 5ec2 6d3d
00000330: 4904 ce3e 5e8c c53e bfbf cd3e 13be 033f
00000340: f027 203d 62ce b93d 1695 c23d 6dee ea3e
00000350: 73ea c03d 3528 b8be 49ea 083d 88ad 6c3d
00000360: c40c bdbd 6d6e 5a3e 4809 66bd 99d7 bbbd
00000370: ee97 023d 657a 79bd 55a3 e83e b49b 023f
00000380: 9d04 e63c 8013 873e 756a 763c 0a7b 96bc
00000390: f57c 96bd cb59 0f3f cd96 b33d f28b de3d
000003a0: 8729 803d 1904 cb3d e308 e63d 8e9a d3bd
000003b0: 20a6 973d 595f 2abd d2e6 313f f91b de3e
000003c0: e788 17bc 3e69 8d3d ca12 c1bc f98b 4abe
000003d0: 3e5a 0ebf 8152 103f 49e8 073e 54d2 103f
000003e0: 6c61 dc3d 0aad e93e f2f5 f23e 0952 373d
000003f0: 99fd 96bd 5878 b0bd 2cd2 143e 44d8 03bd

fc3.bias f4 [4]
0.16970882 0.15947996 -0.029498512 -0.25284037
00000000: 26c8 2d3e b74e 233e dda6 f1bc 4b74 81be
